esm/model/esm2_pretrained_500frameshift_mlm.pth (torch, 10347 bytes, 25 tensors)

embed_tokens.weight f4 [11, 2]
0	0xbe78c6f9	-0.24294652
1	0x40fb421a	7.851819
2	0x3dcf3255	0.10117022
3	0xbeaef8a8	-0.34174085
4	0x3f97e08e	1.1865404
5	0x4103850c	8.219982
6	0xbf01e13a	-0.50734293
7	0x40f96a4e	7.7942266
8	0x3e42afe5	0.19012411
9	0xbf570277	-0.83988136
10	0x3e8f9479	0.28042963
11	0xbf45e642	-0.7730447
12	0x3f8e5aa8	1.1121416
13	0xbea7718b	-0.32703814
14	0x3f70db48	0.94084597
15	0xbf0135c8	-0.5047269
16	0x3f20803e	0.6269568
17	0x4101e2fd	8.117917
18	0x3e8d9816	0.27655095
19	0x40ff7a79	7.9837003
20	0xbf77e6ed	-0.9683674
21	0x40f2b8a8	7.585041

layers.0.self_attn.k_proj.weight f4 [2, 2]
0	0x3e448d5d	0.19194551
1	0xbe951e0c	-0.29124486
2	0x3ed28472	0.41116673
3	0xbf247c4c	-0.6425216

layers.0.self_attn.k_proj.bias f4 [2]
0	0x3eb531ae	0.35389465
1	0x3f1f6cff	0.6227569

layers.0.self_attn.v_proj.weight f4 [2, 2]
0	0xbed82cd8	-0.42221713
1	0x3ddd2a4d	0.10799084
2	0xbf12ea73	-0.5738899
3	0x3fae773f	1.3630141

layers.0.self_attn.v_proj.bias f4 [2]
0	0xbf7fea20	-0.9996662
1	0xbf78c6d6	-0.971784

layers.0.self_attn.q_proj.weight f4 [2, 2]
0	0xbf3b5985	-0.7318347
1	0x3de34a38	0.110981405
2	0x3f205d95	0.62642795
3	0x3ead2b7f	0.33822247

layers.0.self_attn.q_proj.bias f4 [2]
0	0x3f310c78	0.6915965
1	0x3e28fc59	0.16502513

layers.0.self_attn.out_proj.weight f4 [2, 2]
0	0xbf7539d4	-0.95791364
1	0xbfcfa1b1	-1.6221219
2	0x3faf0817	1.3674344
3	0x3fcd573f	1.604225

layers.0.self_attn.out_proj.bias f4 [2]
0	0x3ea94317	0.33058998
1	0xbebb8718	-0.36626506

layers.0.self_attn_layer_norm.weight f4 [2]
0	0x3fb0b02a	1.3803761
1	0x3fcd09ad	1.6018578

layers.0.self_attn_layer_norm.bias f4 [2]
0	0x3db14648	0.08655983
1	0xbf0e1b0d	-0.55510026

layers.0.fc1.weight f4 [8, 2]
0	0x3eabd535	0.33561102
1	0x3ec04d26	0.3755886
2	0x3f07f7a3	0.5311224
3	0x3eb7c9ac	0.3589605
4	0xbed888e7	-0.42291948
5	0x3f13f192	0.5779048
6	0x3f39274b	0.7232558
7	0xbec050c1	-0.3756161
8	0xbf2a27ef	-0.66467184
9	0x3f3e3ab2	0.7430831
10	0x3e50a3cf	0.20374988
11	0xbe9e601a	-0.30932695
12	0x3df07c4a	0.11742456
13	0x3e9d16f5	0.30681577
14	0xbee3ff88	-0.44530892
15	0xbe0f7e52	-0.14013031

layers.0.fc1.bias f4 [8]
0	0xbf0006a5	-0.5001014
1	0xbebe6819	-0.37188795
2	0x3e8f7dc1	0.2802563
3	0x3f298a3f	0.6622657
4	0xbf0f8633	-0.56064147
5	0x3e656275	0.2240084
6	0xbdc9ea6c	-0.098591655
7	0x3ebd43bb	0.36965737

layers.0.fc2.weight f4 [2, 8]
0	0xbe74ca48	-0.23905289
1	0x3e16675b	0.14687864
2	0x3d15cc38	0.03657171
3	0x3f277158	0.65407324
4	0x3d0b278b	0.033973258
5	0x3f03b326	0.51445234
6	0xbeca83a2	-0.39553553
7	0x3e19cb6c	0.15019006
8	0x3ef8b165	0.4857284
9	0xbd3f6ecf	-0.046736535
10	0x3e5c7c41	0.21531774
11	0xbf4eb14d	-0.8073929
12	0xbcd220a5	-0.025650332
13	0xbe193980	-0.14963341
14	0xbe4776dd	-0.19478936
15	0x3deeeaa9	0.116658516

layers.0.fc2.bias f4 [2]
0	0x3f192fa8	0.5983834
1	0xbe05a800	-0.13052368

layers.0.final_layer_norm.weight f4 [2]
0	0x3faae349	1.3350612
1	0x3fa02a2e	1.2512872

layers.0.final_layer_norm.bias f4 [2]
0	0x3eab8614	0.3350073
1	0xbe80a491	-0.25125554

emb_layer_norm_after.weight f4 [2]
0	0x3f05f517	0.523271
1	0x3f95b8d7	1.1697034

emb_layer_norm_after.bias f4 [2]
0	0xbef415e9	-0.47672966
1	0xbe2dc609	-0.16970076

lm_head.weight f4 [11, 2]
0	0xbe78c6f9	-0.24294652
1	0x40fb421a	7.851819
2	0x3dcf3255	0.10117022
3	0xbeaef8a8	-0.34174085
4	0x3f97e08e	1.1865404
5	0x4103850c	8.219982
6	0xbf01e13a	-0.50734293
7	0x40f96a4e	7.7942266
8	0x3e42afe5	0.19012411
9	0xbf570277	-0.83988136
10	0x3e8f9479	0.28042963
11	0xbf45e642	-0.7730447
12	0x3f8e5aa8	1.1121416
13	0xbea7718b	-0.32703814
14	0x3f70db48	0.94084597
15	0xbf0135c8	-0.5047269
16	0x3f20803e	0.6269568
17	0x4101e2fd	8.117917
18	0x3e8d9816	0.27655095
19	0x40ff7a79	7.9837003
20	0xbf77e6ed	-0.9683674
21	0x40f2b8a8	7.585041

lm_head.bias f4 [11]
0	0xc0388dcd	-2.8836548
1	0x3e8ee3fc	0.27908313
2	0xc05eae18	-3.4793758
3	0xc011d00c	-2.2783232
4	0x3eae422c	0.3403486
5	0xbe9647ff	-0.29351804
6	0x3e9a1d15	0.30100313
7	0x3f720062	0.94531834
8	0xc041e609	-3.0296652
9	0xc04f3b33	-3.2379882
10	0xc050bc74	-3.2615023

lm_head.dense.weight f4 [2, 2]
0	0xbd36d3a3	-0.044635426
1	0x3f299627	0.6624474
2	0x3ea241ea	0.31690913
3	0x3ee0d302	0.43910986

lm_head.dense.bias f4 [2]
0	0xbe20ee4e	-0.15715906
1	0xbe49c91c	-0.19705623

lm_head.layer_norm.weight f4 [2]
0	0x3ef5646b	0.47928175
1	0x3fc19ba6	1.5125625

lm_head.layer_norm.bias f4 [2]
0	0xbe89c6c5	-0.26909462
1	0xbf352fbd	-0.7077597
