esm/model/esm2_pretrained_mlm.pth (torch, 9721 bytes, 25 tensors)

embed_tokens.weight f4 [11, 2]
0	0xbfcfc60c	-1.6232314
1	0x3f3b0469	0.73053604
2	0xbfbce99c	-1.4758792
3	0x3f5e9561	0.86946684
4	0xbf416378	-0.755424
5	0x3f9e6396	1.2374141
6	0xc024a154	-2.5723467
7	0x3e01b7ec	0.12667817
8	0xbf1b8da9	-0.6076303
9	0xbf45da8f	-0.7728662
10	0xbf68e7a1	-0.9097844
11	0x4041e667	3.0296876
12	0x3db180a5	0.08667115
13	0xbee8eeba	-0.45494634
14	0xbc9e2074	-0.019302584
15	0xbf213df6	-0.6298517
16	0xc0178df1	-2.3680384
17	0x3e5632d1	0.20917822
18	0xbfe9d557	-1.8268231
19	0x3f2c8c65	0.67401725
20	0xbf934fb2	-1.1508696
21	0x3f811f3e	1.0087659

layers.0.self_attn.k_proj.weight f4 [2, 2]
0	0xbf09e03c	-0.5385778
1	0x3ec2fc7e	0.3808326
2	0x3f0d07cc	0.5509002
3	0x3eb8f5cf	0.36125037

layers.0.self_attn.k_proj.bias f4 [2]
0	0xbe33310c	-0.17499179
1	0xbea74154	-0.3266703

layers.0.self_attn.v_proj.weight f4 [2, 2]
0	0x3f058054	0.5214894
1	0xbf2ec25f	-0.68265337
2	0xbf34258d	-0.703698
3	0xbf50fc8d	-0.8163536

layers.0.self_attn.v_proj.bias f4 [2]
0	0xbd705aa8	-0.058680207
1	0x3eb19e89	0.34691265

layers.0.self_attn.q_proj.weight f4 [2, 2]
0	0x3f176a46	0.59146535
1	0xbf4b39f2	-0.7938529
2	0xbef9cff1	-0.4879146
3	0xbe8eaa17	-0.27864143

layers.0.self_attn.q_proj.bias f4 [2]
0	0x3e705ea2	0.234736
1	0xbe6cd265	-0.23127134

layers.0.self_attn.out_proj.weight f4 [2, 2]
0	0xbebaf5e4	-0.36515725
1	0x3f492942	0.7857858
2	0x3f07dca6	0.5307106
3	0xbeb2fec8	-0.34960008

layers.0.self_attn.out_proj.bias f4 [2]
0	0x3cf7d226	0.030251574
1	0xbcf7cf3b	-0.030250182

layers.0.self_attn_layer_norm.weight f4 [2]
0	0x3f670ca0	0.9025364
1	0x3f8069c0	1.0032272

layers.0.self_attn_layer_norm.bias f4 [2]
0	0xbce1b2fa	-0.027551163
1	0xbc8ad0ca	-0.016945262

layers.0.fc1.weight f4 [8, 2]
0	0xbe929ce9	-0.28635338
1	0xbc971c29	-0.018446045
2	0xbdc4e135	-0.09613267
3	0x3ece392c	0.40277994
4	0x3f1f8dad	0.62325555
5	0x3f1b03d4	0.60552716
6	0x3d9652af	0.073399894
7	0x3e7be4af	0.24598955
8	0x3ed72750	0.4202218
9	0xbeb9faa0	-0.36324024
10	0xbf098c59	-0.5372978
11	0xbf10f1bc	-0.5661886
12	0x3f12de5b	0.5737054
13	0x3dc1907f	0.094513886
14	0x3f0bb4a1	0.5457249
15	0xbf0309e3	-0.5118696

layers.0.fc1.bias f4 [8]
0	0xbe8d35fd	-0.27580252
1	0xbd28e310	-0.04123217
2	0xbf287676	-0.6580576
3	0x3ed37dbe	0.4130687
4	0xbdb1fa9d	-0.08690379
5	0xbe38b656	-0.18038306
6	0x3c594dcf	0.01326318
7	0x3dc68527	0.096933655

layers.0.fc2.weight f4 [2, 8]
0	0x3e8cded9	0.2751377
1	0xbe27ee2b	-0.16399448
2	0xbe8172f4	-0.25283015
3	0xbe796488	-0.24354756
4	0xbe8694a2	-0.26285273
5	0x3e6e1358	0.23249567
6	0x3e7c564a	0.24642292
7	0x3e2d6477	0.16932856
8	0xbd014587	-0.031560447
9	0x3e1786e5	0.14797552
10	0x3d882e2c	0.066494316
11	0xbd299818	-0.041404814
12	0x3e0a9850	0.13534665
13	0xbdd65956	-0.10466258
14	0xbc46021a	-0.012085462
15	0xbe5f5ea6	-0.2181345

layers.0.fc2.bias f4 [2]
0	0x3ea73b70	0.32662535
1	0xbe1fdebd	-0.15612312

layers.0.final_layer_norm.weight f4 [2]
0	0x3f841410	1.0318623
1	0x3f774797	0.9659361

layers.0.final_layer_norm.bias f4 [2]
0	0xbd0635e9	-0.032766256
1	0xbd08a1c0	-0.03335738

emb_layer_norm_after.weight f4 [2]
0	0x3f67f369	0.9060579
1	0x3f8c3288	1.0952921

emb_layer_norm_after.bias f4 [2]
0	0xbdc0317d	-0.09384439
1	0xbdc2e6da	-0.09516688

lm_head.weight f4 [11, 2]
0	0xbfcfc60c	-1.6232314
1	0x3f3b0469	0.73053604
2	0xbfbce99c	-1.4758792
3	0x3f5e9561	0.86946684
4	0xbf416378	-0.755424
5	0x3f9e6396	1.2374141
6	0xc024a154	-2.5723467
7	0x3e01b7ec	0.12667817
8	0xbf1b8da9	-0.6076303
9	0xbf45da8f	-0.7728662
10	0xbf68e7a1	-0.9097844
11	0x4041e667	3.0296876
12	0x3db180a5	0.08667115
13	0xbee8eeba	-0.45494634
14	0xbc9e2074	-0.019302584
15	0xbf213df6	-0.6298517
16	0xc0178df1	-2.3680384
17	0x3e5632d1	0.20917822
18	0xbfe9d557	-1.8268231
19	0x3f2c8c65	0.67401725
20	0xbf934fb2	-1.1508696
21	0x3f811f3e	1.0087659

lm_head.bias f4 [11]
0	0xbf5fc0a5	-0.8740333
1	0xbfb3ff43	-1.4062275
2	0xbfcc641e	-1.5968053
3	0xbf9a7a80	-1.2068634
4	0x3faae85b	1.3352159
5	0x400897e2	2.1342702
6	0x3e392bf8	0.18083179
7	0x3e8b4db4	0.2720772
8	0xbfa0f47d	-1.2574612
9	0xbfa6210a	-1.2978833
10	0xbf8ff5f9	-1.124694

lm_head.dense.weight f4 [2, 2]
0	0xbc879577	-0.016550763
1	0xbe0243f8	-0.1272124
2	0x3ec21fbe	0.37914842
3	0x3f0b3cc9	0.54389626

lm_head.dense.bias f4 [2]
0	0x3e510b56	0.2041448
1	0x3f07d0d4	0.5305302

lm_head.layer_norm.weight f4 [2]
0	0x3faf1724	1.3678937
1	0x403798c9	2.8687003

lm_head.layer_norm.bias f4 [2]
0	0x3f6fcaec	0.9366901
1	0xbdeeb137	-0.11654895
